models/dqn_tutor.pth (torch, 22765 bytes, 6 tensors)

fc.0.weight f4 [64, 6]
0	0xbdbd9ec4	-0.09258798
1	0xbeafc22b	-0.34327826
2	0x3e312d00	0.17302322
3	0xbe5c53e1	-0.21516372
4	0xbe40c66f	-0.18825696
5	0xbe442afe	-0.19157025
6	0x3f22858c	0.63485026
7	0xbf2d14e3	-0.67609996
8	0xbdfd5fa3	-0.12371757
9	0xbca25af3	-0.019818759
10	0xbf9a042e	-1.2032526
11	0xbfd9612d	-1.6982781
12	0xbf2993d5	-0.662412
13	0xbf5594c9	-0.83430153
14	0x3ec3170c	0.3810352
15	0x3de5b592	0.112162724
16	0x3e11819a	0.14209595
17	0x400e9e58	2.2284145
18	0x3e8def73	0.27721748
19	0xbe30eaff	-0.17277144
20	0xbd0ed5b3	-0.03487177
21	0x3de7ea6a	0.11324008
22	0xbeeba769	-0.4602616
23	0xbffc11fb	-1.9692987
24	0xbe847275	-0.25868574
25	0xbeba0454	-0.36331427
26	0xbe73c14d	-0.23804207
27	0xbe634643	-0.22194771
28	0x3e371f2e	0.17882988
29	0xbe2ab9ea	-0.16672483
30	0x3d438c60	0.047741294
31	0x3e5034e2	0.20332673
32	0x3d12ccf8	0.035840005
33	0xbc800d79	-0.015631424
34	0x3f6db85c	0.92859435
35	0x3fcf6c17	1.6204861
36	0xbf8df43e	-1.1090162
37	0x3ed93420	0.4242258
38	0xbe86f715	-0.26360384
39	0x3e98c3ab	0.29836783
40	0xbdb8fcf1	-0.0903262
41	0xbfae5510	-1.3619709
42	0x3e0edb9c	0.13950962
43	0x3e565440	0.20930576
44	0x3eec31d3	0.46131763
45	0xbce994e8	-0.028513387
46	0x3ebb63d4	0.365996
47	0x4010137d	2.2511895
48	0xbead370b	-0.33831057
49	0xbf891da9	-1.0712177
50	0x3d7d5551	0.061848942
51	0x3d8adf4f	0.06780874
52	0x3dc34fcd	0.09536705
53	0x4013f68f	2.3119237
54	0xbdc49bfa	-0.09600063
55	0x3f1ace1d	0.60470754
56	0xbf3c853b	-0.73640794
57	0x3c928f10	0.017890483
58	0x3f9dd77a	1.2331383
59	0xc0040eae	-2.063396
60	0xb9b896e1	-0.00035207628
61	0x3f5a844b	0.85358113
62	0x3ee818a3	0.45331296
63	0xbc325bcd	-0.010886145
64	0x3f607270	0.8767462
65	0x3fff1b2d	1.9930168
66	0x3eb42f3f	0.35192296
67	0x3e9f299c	0.31086433
68	0x3dfbc037	0.122925214
69	0x3c71165f	0.014714806
70	0x3f17ee36	0.59347856
71	0xc0382a33	-2.8775756
72	0xbde7c98d	-0.1131774
73	0xbd352412	-0.044223852
74	0xbdcf0a57	-0.10109394
75	0x3d8662f0	0.065618396
76	0xbe10f929	-0.14157547
77	0x4020a930	2.5103264
78	0xbe800aa6	-0.25008124
79	0x3fb58237	1.4180363
80	0x3f2841af	0.65725225
81	0xbf2d0a5b	-0.67593926
82	0xbf21a2e7	-0.63139194
83	0x3f7c7398	0.9861388
84	0xbed96ab0	-0.4246421
85	0x3f77e0ef	0.96827596
86	0x3ec27f5b	0.3798779
87	0x3df0926a	0.11746676
88	0x3f73f431	0.9529448
89	0x3ff8fef0	1.9452801
90	0x3e7240f1	0.23657586
91	0x3f25b680	0.647316
92	0x3e13c50e	0.14430639
93	0xbeb89c40	-0.3605671
94	0x3ec3d903	0.38251504
95	0x3fa06c56	1.2533062
96	0x3f05e122	0.5229665
97	0x3ed0db74	0.4079243
98	0xbee5b44c	-0.44864118
99	0x3eb07ad1	0.344687
100	0xbf846014	-1.0341821
101	0xc01ce836	-2.451673
102	0x3d2e7ac3	0.042597543
103	0xbde2762a	-0.11057694
104	0xbee38920	-0.44440556
105	0x3e6846ca	0.22683254
106	0xbd776117	-0.060395326
107	0xc006c28c	-2.1056242
108	0x3e9d4460	0.30716228
109	0x3e804715	0.2505423
110	0x3f1f46d2	0.6221744
111	0xbd0490ce	-0.03236466
112	0x3ebc869f	0.36821458
113	0x40269a38	2.6031628
114	0x3ee4dcd6	0.44699734
115	0x3f93aa12	1.1536276
116	0xbe6e8c3b	-0.23295681
117	0x3dc15e90	0.094418645
118	0x3f7606aa	0.9610392
119	0xc03a8ad2	-2.914723
120	0x3f31a7b3	0.69396514
121	0xbf3ced64	-0.7379973
122	0xbe7c06cd	-0.2461197
123	0xbe8f7902	-0.2802201
124	0xbef06bf1	-0.46957353
125	0xbf45dd5c	-0.7729089
126	0xbfdfbf8a	-1.7480328
127	0x3e0eb4d2	0.13936165
128	0x3f04885e	0.5177058
129	0x3e8c3fdd	0.27392474
130	0x3e14d23b	0.14533322
131	0xbf0bee7e	-0.54660785
132	0x3d5b5a12	0.053552695
133	0x3eafe021	0.34350684
134	0x3d1fbd2d	0.03899877
135	0x3c40494d	0.011736226
136	0x3fb5b038	1.4194403
137	0xc06faf3f	-3.7450712
138	0xbe963e9b	-0.2934464
139	0xbf5159a3	-0.817774
140	0x3de9a693	0.11408725
141	0xbc31ef07	-0.010860211
142	0x3d92dc33	0.07170906
143	0x401349a3	2.3013694
144	0x3e46205d	0.19348283
145	0xbd2b6da2	-0.0418526
146	0xbeaddfee	-0.33959907
147	0xbec52b7b	-0.38509735
148	0x3d250e90	0.04029709
149	0xbea354c7	-0.31900617
150	0x3e814257	0.25245926
151	0x3ecf7952	0.40522248
152	0xbe43ac28	-0.19108641
153	0xbdb62bad	-0.08895049
154	0xbd443454	-0.047901466
155	0x3faa14be	1.328758
156	0x3edc8d16	0.4307639
157	0x3f66a449	0.9009443
158	0xbdce96af	-0.10087334
159	0x3ca9348a	0.020654935
160	0x3dbddbfa	0.09270473
161	0xc041443d	-3.01979
162	0x3e949a9f	0.29024217
163	0xbe808b03	-0.25106058
164	0x3ebb3217	0.36561653
165	0xbd2c5025	-0.04206862
166	0xbf25df37	-0.64793724
167	0x3fe7de28	1.8114672
168	0xbfb223a6	-1.3917129
169	0x3f95ebde	1.1712606
170	0xbeeafb91	-0.45895055
171	0xbe01fdc0	-0.12694454
172	0x3e5516b7	0.20809446
173	0x3f91d8ee	1.1394327
174	0xbecd1463	-0.40054616
175	0xbee80fa5	-0.45324436
176	0x3c9daca6	0.019247364
177	0x3e1c23d7	0.15248047
178	0x3f367c12	0.71283066
179	0x4018e20d	2.388797
180	0xbb93bb0c	-0.0045083817
181	0x3ea79111	0.32727864
182	0x3dbdf495	0.09275166
183	0xbc3ecff9	-0.011646264
184	0x3f3bfa73	0.7342903
185	0x4013cdfd	2.3094475
186	0xbfb4383f	-1.4079665
187	0x3ee43cb5	0.44577566
188	0x3e471166	0.1944023
189	0x3e6cd828	0.23129332
190	0x3f25eec0	0.6481743
191	0xbf752d5c	-0.9577234
192	0x3e5871e1	0.21137191
193	0x3e987c89	0.29782513
194	0x3dbb8c12	0.09157576
195	0xbc7b27b0	-0.015329286
196	0x3f069607	0.52572674
197	0x40123220	2.2843094
198	0xbf8660fd	-1.0498348
199	0x3f7b9d97	0.9828734
200	0x3d62509e	0.055252664
201	0x3eb9916f	0.3624377
202	0xbf253c1a	-0.6454483
203	0x3ed2bce7	0.41159746
204	0xbed51307	-0.4161608
205	0xbd873f0e	-0.066038236
206	0x3e67ab17	0.2262386
207	0x3e03a517	0.12855946
208	0x3cb4dbba	0.02207743
209	0x40093cec	2.1443434
210	0x3ddb7f78	0.10717672
211	0x3e80f82c	0.2518934
212	0xbe7a954b	-0.24471013
213	0x3cfa6ea7	0.030570341
214	0x3f325bc4	0.69671273
215	0x40003975	2.003507
216	0x3e627388	0.22114384
217	0xbe086736	-0.13320622
218	0xbdad918a	-0.08475025
219	0x3d22181c	0.039573774
220	0x3ea5a4c7	0.32352278
221	0x400cea25	2.201791
222	0xbef04c82	-0.4693337
223	0xbf149793	-0.58043784
224	0x3e81dea5	0.25365177
225	0xbaa5934d	-0.00126324
226	0x3eb7bbed	0.35885563
227	0x4018e778	2.3891277
228	0xbdb5f37d	-0.08884332
229	0x3e541cef	0.20714162
230	0x3f159a21	0.5843831
231	0xbda8bab9	-0.082387395
232	0xbb9e7176	-0.004835303
233	0x400d4073	2.2070587
234	0x3e59de5f	0.21276234
235	0xbf04ef6f	-0.51927847
236	0x3e21b020	0.15789843
237	0x3d31cf98	0.043410867
238	0xbde7e112	-0.11322226
239	0x401aa79a	2.4164796
240	0x3f116f9d	0.56810933
241	0xbf7d8e89	-0.99045616
242	0xbc8b043a	-0.016969789
243	0x3ca8c5ce	0.020602133
244	0xbebc5e3c	-0.36790645
245	0xbff1983c	-1.8874583
246	0xbebee259	-0.37282065
247	0xbb837fe9	-0.004013051
248	0xbeb5ed32	-0.35532528
249	0xbe54829c	-0.20752949
250	0xbe47743a	-0.1947793
251	0x3dfebb43	0.12438061
252	0xbeb60f25	-0.3555843
253	0xbeacf174	-0.33777964
254	0xbcb156b7	-0.021647794
255	0x3dcfb0e1	0.10141159

fc.0.bias f4 [64]
0	0xbd195fcb	-0.03744487
1	0xbfc944e8	-1.5724154
2	0x3f823c09	1.0174571
3	0xbf480bf7	-0.78143257
4	0xbe2b126a	-0.16706243
5	0x3f391ee6	0.7231277
6	0xbf1650ef	-0.58717245
7	0x3f6cc615	0.9248975
8	0x3fb3229b	1.3994936
9	0x3f657261	0.89627653
10	0x3f9269ad	1.14385
11	0x3ddbb414	0.107277066
12	0x3fbd61a5	1.4795424
13	0x3f65b56e	0.89729965
14	0x3f888e74	1.0668473
15	0x3f9fced2	1.2484992
16	0xbfa6288d	-1.2981125
17	0xbf10b7e8	-0.5653062
18	0x3f79c2a8	0.97562647
19	0xbf84a759	-1.036357
20	0xbf0e470f	-0.55577177
21	0xbf5995f3	-0.8499443
22	0x3ff09aa4	1.8797193
23	0x3f910bac	1.1331687
24	0x3e312273	0.17298298
25	0x3feb9f2e	1.8407953
26	0xbf11df8f	-0.5698175
27	0x3fbad164	1.4595151
28	0x3f90ac3d	1.1302563
29	0x3f753e87	0.95798534
30	0x3fdefe35	1.7421328
31	0x3f6837f4	0.9071038
32	0x3fd7cab1	1.6858732
33	0xbd7c41ae	-0.061586075
34	0x3fefb8f5	1.872832
35	0x3f907d69	1.1288272
36	0x3fbd5d03	1.479401
37	0x3fcef6af	1.6169032
38	0x3fca8cb2	1.5824187
39	0x3f88f294	1.0699029
40	0xbfadf23c	-1.3589549
41	0xbdff360d	-0.12461481
42	0x3fa109eb	1.2581152
43	0x3f9f7f5d	1.2460743
44	0xbf251580	-0.6448593
45	0xbeca133b	-0.39467797
46	0xbe18734d	-0.14887734
47	0x3f1dd5e3	0.6165449
48	0x3f9a6227	1.2061204
49	0xbd304d95	-0.043042738
50	0x3fc34576	1.5255573
51	0xbf2aa388	-0.6665578
52	0xbdd9d62a	-0.10636552
53	0xbde22161	-0.11041523
54	0x3ee99f2a	0.45629245
55	0xbe41be6e	-0.189203
56	0xbf734bda	-0.95037615
57	0xbe3f4715	-0.1867946
58	0x3fb48c49	1.4105312
59	0x3f717ba6	0.943293
60	0x3f082b88	0.53191423
61	0xbecc3512	-0.3988424
62	0x3f8954f7	1.0729054
63	0x3fb5c8e6	1.4201934

fc.2.weight f4 [64, 64]
0	0x3da8291e	0.082109675
1	0x3d3cc880	0.04608965
2	0xbccbafe0	-0.024864137
3	0xbd8e1598	-0.069377124
4	0xbdb415b4	-0.08793202
5	0xbcce7358	-0.025201485
6	0xbdf6e552	-0.12055458
7	0xbd9f9ce8	-0.07793599
8	0xbc900de0	-0.017584741
9	0x3cc251e8	0.023720697
10	0xbdad49b6	-0.08461325
11	0xbdb94302	-0.09045984
12	0x3d2b740c	0.041858718
13	0x3cfd8d08	0.030951038
14	0x3d5f9e9c	0.05459462
15	0x3d5e0ccc	0.054211423
16	0xbcd4c638	-0.025973424
17	0xbba19360	-0.0049308985
18	0x3d9e3318	0.07724589
19	0xbd62a240	-0.055330515
20	0x3da6326c	0.08115086
21	0xbde5763a	-0.112041906
22	0xbd07e2e8	-0.03317538
23	0x3d13e21c	0.036104307
24	0xbdc6fba2	-0.09715964
25	0x3d15ef14	0.036604956
26	0x3df2f540	0.11863184
27	0xbd54afac	-0.051925346
28	0x3d19293c	0.03739284
29	0x3d78ae54	0.060713127
30	0xbdaef470	-0.085427165
31	0xbca82768	-0.020526603
32	0x3cf1b6a8	0.029506043
33	0x3b839600	0.004015684
34	0xbca46198	-0.020066068
35	0x3ccb24b8	0.024797782
36	0x3d820cee	0.063501224
37	0xbdffea06	-0.12495808
38	0xbdf3dec0	-0.119077206
39	0xbda4c1cc	-0.08044776
40	0xbd191894	-0.037376955
41	0xbc9bd4b0	-0.019022316
42	0xbdde26cc	-0.10847244
43	0x3c2d27b0	0.010568544
44	0x3d5d0b70	0.053965986
45	0xbd9c59f0	-0.07634342
46	0x3dd3c4b0	0.103402495
47	0x3da6db0c	0.081472486
48	0xbd331710	-0.043723166
49	0x3dcd1e14	0.100155026
50	0xbceab7e8	-0.028652146
51	0x3d8d61f8	0.06903452
52	0x3d323ae0	0.04351318
53	0xbcfccfb8	-0.030860767
54	0x3d1e44cc	0.03863983
55	0xbdfee258	-0.124455154
56	0xbd43595c	-0.04769264
57	0xbd8483c6	-0.06470446
58	0x3d0f4b88	0.03498414
59	0xbcec3470	-0.028833598
60	0xbd7d1d3c	-0.06179546
61	0x3df77950	0.120836854
62	0x3dac35fa	0.08408733
63	0xbd9c8d9c	-0.07644197
64	0x3ca47ec0	0.02007997
65	0xbd4fb7d4	-0.05071242
66	0xbd94d5fb	-0.07267376
67	0x3dc6e428	0.09711486
68	0xbc73d860	-0.014883131
69	0x3d3b6558	0.045750946
70	0x3ddb3a2e	0.10704456
71	0xbe1a33bf	-0.15058802
72	0x3bea2a3e	0.007146149
73	0xbd1ddc4a	-0.038540162
74	0x3c64eb40	0.013972104
75	0xbc5a6550	-0.013329819
76	0x3d553264	0.05205001
77	0xbc13bd99	-0.009017372
78	0xbdb5fd9c	-0.08886263
79	0xbce77089	-0.028251903
80	0xbd3ee298	-0.046602815
81	0xbd04254c	-0.03226213
82	0x3cf06860	0.029346645
83	0xbd9374e2	-0.07200028
84	0x3b84da80	0.0040543675
85	0xbdf6355a	-0.12021895
86	0x3dab5446	0.08365683
87	0xbdfc1bca	-0.12309988
88	0xbcf1be70	-0.029509753
89	0xbe19b6ea	-0.15011182
90	0x3d812f96	0.063079044
91	0xbc804d6d	-0.01566192
92	0xbd22bfda	-0.039733745
93	0xbddb4418	-0.10706347
94	0xbdd9d0fe	-0.10635565
95	0xbd98e4c0	-0.074655056
96	0xbd10e85a	-0.035377838
97	0x3cba7c2d	0.02276429
98	0xbe14a250	-0.14515042
99	0xbdc47ed9	-0.09594507
100	0xbde202e2	-0.11035706
101	0x3b0902a7	0.0020906122
102	0xbc851b7f	-0.016248463
103	0xbdd5ce66	-0.10439758
104	0xbd1fc088	-0.03900197
105	0xbdf6d353	-0.12052026
106	0x3d8f4cc9	0.069970675
107	0xbe13092b	-0.14358966
108	0x3d8592f4	0.0652217
109	0xbd48582c	-0.048912212
110	0xbbf8b49d	-0.00758989
111	0x3dabe79c	0.08393785
112	0x3cd63662	0.026148979
113	0xbcf09242	-0.029366616
114	0x3d3b157c	0.045674786
115	0xbdcb5864	-0.099289685
116	0x3da44c67	0.08022385
117	0xbc96a6f0	-0.018390149
118	0xbd073f6c	-0.03301947
119	0xbd3e35d8	-0.04643807
120	0xbbb66b20	-0.0055669695
121	0x3c2d1fca	0.010566661
122	0x3d678b63	0.056529414
123	0xbdd503ad	-0.10401092
124	0x3d00dc98	0.031460375
125	0xbdabf130	-0.08395612
126	0x3cb9f1b7	0.022698266
127	0xbccaebec	-0.0247707
128	0xbcb74268	-0.022370532
129	0xbdbeaeee	-0.09310709
130	0x3d81f5f3	0.06345739
131	0xbd9909e6	-0.07472591
132	0x3d78f0e0	0.06077659
133	0xbddc87c0	-0.1076808
134	0xbd928f64	-0.07156256
135	0xbda51d2a	-0.08062203
136	0x3c864d06	0.01639415
137	0x3d93e92c	0.072222084
138	0xbe05b903	-0.13058858
139	0x3d2e243c	0.042515025
140	0xbda7fa02	-0.08201982
141	0x3c58cbf0	0.013232216
142	0xbd9827bc	-0.07429454
143	0x3d88a554	0.06672159
144	0xbdd24310	-0.102666974
145	0x3bd5bec0	0.0065229833
146	0x3d5843b1	0.05279893
147	0xbe0f452b	-0.13991229
148	0x3d022fe5	0.031783957
149	0xbdda2a9c	-0.10652658
150	0x3de882c8	0.113530695
151	0x3d00d055	0.03144868
152	0xba2f6200	-0.00066903234
153	0xbd4683fa	-0.048465706
154	0x3daf25ac	0.08552107
155	0xbd3d8f7e	-0.046279423
156	0xbdcd6d6e	-0.10030638
157	0xbdbb30db	-0.09140178
158	0x3d6be29a	0.05758915
159	0xbdd781bc	-0.10522792
160	0x3dce0eea	0.100614384
161	0xbd82c132	-0.06384505
162	0xbdb1b0fc	-0.08676335
163	0xbcc367f9	-0.023853289
164	0xbd2274b9	-0.039662097
165	0x3cec7dcd	0.02886858
166	0x3dd30e09	0.10305411
167	0xbdab3702	-0.08360101
168	0x3d8c773f	0.06858682
169	0x3dc02ca0	0.093835115
170	0x3ce381ea	0.027771909
171	0xbdd2b195	-0.10287777
172	0xbda0d44b	-0.07852992
173	0x3d96359e	0.073344454
174	0x3d0a3810	0.03374487
175	0x3d9db6c8	0.077008784
176	0x3bee3829	0.0072698784
177	0xbdc0d634	-0.09415856
178	0xbdc871d6	-0.097873375
179	0xbdfa7c72	-0.12230767
180	0xbca25948	-0.019817963
181	0x3db126ec	0.08650002
182	0xbd9fc063	-0.07800367
183	0x3d192934	0.03739281
184	0x3d107097	0.035263624
185	0xbd1318c8	-0.035912305
186	0xbd89285b	-0.0669715
187	0xbd1d1c22	-0.038356908
188	0x3d32ab2c	0.043620273
189	0x3d83c004	0.064331084
190	0x3d38d365	0.045123477
191	0xb90f8dfd	-0.00013690437
192	0x3d610564	0.05493678
193	0xbed1bf0c	-0.4096607
194	0xbf65ce7e	-0.8976821
195	0xbfb0cf3e	-1.3813245
196	0xbddd151c	-0.10795042
197	0x3f2017c1	0.62536246
198	0x3c2390bd	0.009983239
199	0x3e6f5703	0.23373036
200	0xbe2c3566	-0.16817245
201	0x401b4e17	2.4266412
202	0x3f53bcb2	0.827098
203	0x3f4e2554	0.8052571
204	0xbe91a4c3	-0.28446016
205	0xbfc6ec7e	-1.5540922
206	0x3e5d59e9	0.21616329
207	0xbf207d7a	-0.6269146
208	0xbf016476	-0.50543916
209	0xbe9e772b	-0.30950293
210	0x3eb3196d	0.34980336
211	0x3ea496fe	0.32146448
212	0xbe3ca939	-0.18423928
213	0xbdb74709	-0.08949096
214	0x3f1730b9	0.5905872
215	0xbea46966	-0.32111663
216	0xbd8c3cad	-0.068475105
217	0x3f2fea50	0.6871691
218	0xbfeba851	-1.8410741
219	0x3dc81cb6	0.09771101
220	0xbf55f097	-0.83570236
221	0x3eb01a53	0.34395084
222	0x3ea24996	0.31696767
223	0x3fbd7b59	1.4803268
224	0x3e6e13da	0.2324976
225	0xc046e1a0	-3.107521
226	0xbd880222	-0.06641032
227	0x3da8b7e9	0.08238203
228	0xbe21f5c5	-0.1581641
229	0x3d0be492	0.03415353
230	0x3ea3ea45	0.3201467
231	0xbe32a5b5	-0.17446025
232	0xbf8e40f8	-1.1113577
233	0x3e6049ed	0.219032
234	0x3b7a37e7	0.0038180293
235	0x3f217e54	0.63083386
236	0xbffbf222	-1.9683268
237	0xbd43f5c0	-0.047841787
238	0x3d22534a	0.039630212
239	0x3f3a70a1	0.7282811
240	0xbea512d5	-0.3224093
241	0x3e5aab52	0.21354416
242	0xbf2566db	-0.6461007
243	0xbfe65542	-1.7994769
244	0x3d1a227d	0.037630547
245	0x3d3ddfc0	0.046355963
246	0x3e1e4495	0.1545585
247	0x3d2961bc	0.041352972
248	0xbee640a3	-0.4497119
249	0x3db9efee	0.09078966
250	0xbf2c37ec	-0.6727283
251	0xbeacff69	-0.33788612
252	0x3f46f420	0.77716255
253	0xbd363642	-0.044485338
254	0x3da447e6	0.08021526
255	0xbeb50315	-0.35353914

fc.2.bias f4 [64]
0	0x3bd40300	0.006470084
1	0x3dafda64	0.085865766
2	0xbc8b3af2	-0.01699588
3	0xbdacf82a	-0.08445771
4	0x3fbeada8	1.4896746
5	0xbdc7d4d5	-0.09757391
6	0x3fba2db4	1.4545197
7	0x3fcfb6a4	1.6227612
8	0x3fb67e27	1.4257249
9	0x3c414524	0.01179627
10	0x3c241f83	0.010017279
11	0x3f87d467	1.0611695
12	0xbda412cf	-0.080114
13	0xbe236f09	-0.15960325
14	0x3fbd5744	1.4792256
15	0x3eec4b81	0.46151355
16	0xbe00e5bf	-0.12587641
17	0xbdf80ddc	-0.121120185
18	0x3cc08130	0.023499101
19	0xbd60296e	-0.05472701
20	0x3cfd4bae	0.030919876
21	0xbd408df3	-0.047010373
22	0x3f05cc90	0.5226526
23	0x3d1b2cc3	0.037884485
24	0x3faaf32f	1.3355464
25	0x3fc94647	1.5724572
26	0x3f9e3218	1.2359037
27	0x3f911609	1.133485
28	0xbe0f2119	-0.1397747
29	0x3f3ab50b	0.729325
30	0x3f903368	1.1265688
31	0x3dbd87bf	0.09254407
32	0x3fbab653	1.4586891
33	0xbd825681	-0.063641556
34	0xbd114641	-0.03546739
35	0xbddc8a3a	-0.10768552
36	0xbd0be35a	-0.034152366
37	0x3fa8c02d	1.3183647
38	0x3f9d3bc0	1.2283859
39	0x3fb2a2a7	1.3955888
40	0x3f617adb	0.8807809
41	0xbc87a38c	-0.016557477
42	0x3f8cef98	1.1010618
43	0x3fabed96	1.343188
44	0x3d5c37a7	0.05376401
45	0x3fb43525	1.4078718
46	0x3bff6ba6	0.007794815
47	0x3de43ac8	0.11144024
48	0x3f9afc66	1.2108276
49	0x3f5150e1	0.81764036
50	0x3f6d2373	0.92632216
51	0x3fa57e6a	1.2929204
52	0xbcefda73	-0.02927897
53	0xbda1d098	-0.07901114
54	0xbec55f41	-0.38549235
55	0x3d986369	0.07440836
56	0x3d6d42b0	0.057924926
57	0x3f926b65	1.1439024
58	0xbd9ae452	-0.0756308
59	0xbe612935	-0.21988375
60	0x3f023b1f	0.5087146
61	0x3fa59f2f	1.2939204
62	0x3fad76fa	1.3551934
63	0x3ca16906	0.0197034

fc.4.weight f4 [5, 64]
0	0x3de3e2d2	0.11127247
1	0x3cc20750	0.023685127
2	0xbc97d260	-0.018532932
3	0x3f0a6397	0.5405821
4	0x3f6ffdf5	0.9374688
5	0x3c42255d	0.011849728
6	0x3f8b6bf4	1.089232
7	0xc0b4216c	-5.62908
8	0x3f5f34f5	0.8719018
9	0x3d29c6a6	0.04144921
10	0x3dea88fc	0.11451909
11	0x3fb73e4d	1.4315888
12	0xbd6002c3	-0.054690134
13	0xbd82c171	-0.06384552
14	0x3f4e17a7	0.8050484
15	0x3c97e55c	0.018541984
16	0x3bc5c7e0	0.00603579
17	0x3d61b750	0.05510646
18	0x3dc3805e	0.095459685
19	0x3d19d4ce	0.037556462
20	0xbe23bdcb	-0.15990369
21	0xbda2eb76	-0.07955067
22	0xc0b07bca	-5.515111
23	0x3d4fc5da	0.050725795
24	0x3f5c8144	0.86134744
25	0x3f6d5ada	0.92716753
26	0x3f3ce931	0.7379332
27	0x3f969382	1.1763766
28	0xbd3e3899	-0.046440694
29	0x3f25fc03	0.64837664
30	0x3f55ad44	0.8346751
31	0x3c9e8bca	0.019353766
32	0x3f8e9b3b	1.1141123
33	0x3c5203f8	0.012818329
34	0x3924dadf	0.00015721795
35	0x3d8f9c7c	0.07012269
36	0x3df849a2	0.12123419
37	0x3f600735	0.87511
38	0x3f8e5898	1.1120787
39	0x3f7ee264	0.99564195
40	0x3ef997c1	0.48748592
41	0x3d824657	0.063610725
42	0x3f77d54b	0.96809834
43	0x3f7fa27c	0.99857306
44	0x3d192441	0.03738809
45	0x3f8dc002	1.1074221
46	0xbd9042ee	-0.07044016
47	0xbd66fb2c	-0.05639188
48	0x3f53f153	0.82790107
49	0x3ebd4199	0.3696411
50	0x3f4d8613	0.80282706
51	0x3f613e79	0.8798595
52	0x3ded390c	0.115831465
53	0x3bcd8180	0.006271541
54	0xbf3bcf56	-0.73363245
55	0xbd69563d	-0.05696701
56	0x3d8ba991	0.068194516
57	0x3f56b19b	0.83864754
58	0x3bd91fe0	0.0066261142
59	0xc035808a	-2.8359704
60	0xc04276ae	-3.0384936
61	0x3f8170a6	1.0112503
62	0x3f83954d	1.0279938
63	0xbdc3919a	-0.09549256
64	0x3d610fec	0.054946825
65	0xbd8f03ad	-0.06983123
66	0x3da66112	0.081239834
67	0x3fa0ff69	1.2577945
68	0x3ec828ee	0.39093727
69	0xbcd05dbe	-0.025435325
70	0x3f4c738d	0.79863816
71	0xc092c423	-4.5864425
72	0x3d1db25d	0.03850018
73	0x3dc739db	0.09727832
74	0xbc187dfb	-0.00930738
75	0x402fefa7	2.7490022
76	0x3d86c216	0.06579988
77	0xbd36868d	-0.04456191
78	0x3f96acd0	1.1771488
79	0x3e85db11	0.26143697
80	0xbc4398bf	-0.011938273
81	0x3d2846ac	0.041083023
82	0xbdec4a04	-0.11537555
83	0x3c7e9bb8	0.015540056
84	0xbd5f7b41	-0.054560903
85	0xbd8359aa	-0.064135864
86	0x3f2ff839	0.6873813
87	0xbc2e2afa	-0.010630364
88	0x3fa106dc	1.2580218
89	0x3f254907	0.64564556
90	0x3f330725	0.69932777
91	0x3fa70330	1.3047848
92	0x3da16980	0.07881451
93	0x3f94057f	1.1564177
94	0x3f811eaf	1.0087489
95	0xbdfe2599	-0.12409515
96	0x3f4f97a5	0.81090766
97	0xbda54557	-0.08069866
98	0xbd469497	-0.04848155
99	0x3a9b1800	0.0011832714
100	0xbdab8959	-0.08375806
101	0x3ed5aaf0	0.41731977
102	0x3f2bcac1	0.6710625
103	0x3ebe8f49	0.37218693
104	0x3fb50877	1.4143208
105	0xbcc2327b	-0.023705712
106	0x3fc473fb	1.5347894
107	0x3f2af38b	0.6677787
108	0x3dc584f8	0.096445024
109	0x3f47445c	0.77838683
110	0x3d9a0546	0.07520537
111	0xbd317308	-0.043322593
112	0x3f49808a	0.7871176
113	0x3fede338	1.8584967
114	0x3f91e6b2	1.1398528
115	0x3f58f53b	0.8474919
116	0xbd8db707	-0.06919675
117	0x3db9c1cc	0.09070167
118	0x3f2f446b	0.6846377
119	0xbd8d16f7	-0.06889146
120	0x3daf4978	0.08558935
121	0x3f8811b5	1.0630404
122	0x3d8dcc48	0.06923729
123	0xbfe5b683	-1.7946323
124	0xc036576c	-2.8490858
125	0x3f6e71f9	0.9314266
126	0x3f9683d7	1.1758984
127	0xbc20a34e	-0.00980456
128	0x3d7a64c4	0.061131254
129	0xbd88d52c	-0.06681284
130	0x3c528100	0.012848139
131	0xbf9040b7	-1.1269749
132	0x3e338e01	0.17534639
133	0xbda2745d	-0.07932351
134	0x3f8faf61	1.1225396
135	0xbf325ef7	-0.69676155
136	0x3f5bb7e4	0.8582747
137	0xbd183255	-0.037157375
138	0xbd39c9e0	-0.04535854
139	0x3fe9796d	1.8240181
140	0xbda9fc8d	-0.08300123
141	0x3df3dfc6	0.11907916
142	0x3fa62f0a	1.2983105
143	0x3fe9cdf9	1.8265983
144	0xbdfadb92	-0.12248911
145	0x3d1ff7f0	0.03905481
146	0x3d34e4a0	0.044163346
147	0xbbbdd528	-0.0057932325
148	0xbca2a69c	-0.019854836
149	0xbd074f0b	-0.033034366
150	0x3e1d7907	0.153782
151	0xbcbd69d0	-0.023121744
152	0x3fcec69f	1.6154364
153	0x3e829ed9	0.25511816
154	0x3f01a787	0.5064625
155	0x3ef57165	0.47938076
156	0xbc4a1100	-0.012333155
157	0x3ec2c188	0.38038278
158	0x3fd212ea	1.6412022
159	0xbc16c062	-0.009201141
160	0x3fa86374	1.3155351
161	0xbd41f130	-0.047349155
162	0x3d45cffc	0.048294052
163	0x3cf25458	0.029581234
164	0xbda4c0e4	-0.080446035
165	0x3eb22cf3	0.3479992
166	0x3f60d9a5	0.878321
167	0x3fb1e532	1.389807
168	0x3fb25a28	1.3933764
169	0x3cce7d0c	0.025206111
170	0x3fd8bc3c	1.6932445
171	0x3f001abd	0.500408
172	0xbdafb17f	-0.085787766
173	0x3e86659d	0.262494
174	0xbd994b2a	-0.074850395
175	0xbd2cafd8	-0.042159885
176	0x3e777a41	0.2416773
177	0x3ee864c2	0.45389372
178	0x3fb56ed8	1.4174452
179	0x3f4dc0ce	0.8037232
180	0xb932f400	-0.000170663
181	0x3d8ee8ce	0.06977998
182	0xbe885ef2	-0.26634938
183	0xbdd7c7e2	-0.105361715
184	0x3d40401e	0.046936147
185	0x3f0cd05e	0.55005443
186	0xbae8eb00	-0.0017770231
187	0xbfa14946	-1.2600486
188	0x3e37ecab	0.17961375
189	0x3fb0d84b	1.3816007
190	0x3ef7e96b	0.4842027
191	0x3d7bd427	0.06148162
192	0x3df6890c	0.12037858
193	0x3c674160	0.014114708
194	0x3d2db46e	0.0424084
195	0x400e42f7	2.2228372
196	0x3f48f35d	0.7849634
197	0x3dfbb5b1	0.12290514
198	0x3f85a63a	1.0441353
199	0xc02c30a8	-2.6904697
200	0x3f1010fb	0.5627591
201	0xbdc774fc	-0.0973911
202	0x3dd5077e	0.1040182
203	0x3fed2176	1.8525836
204	0xbdd95c71	-0.10613335
205	0x3b9b7998	0.0047447197
206	0x3f9b2319	1.2120086
207	0x3dcbe796	0.09956281
208	0x3da7a5b7	0.081859045
209	0x3c7a7610	0.015286937
210	0xbd8d3752	-0.06895317
211	0xbdbb5ffb	-0.09149166
212	0xbdd345ce	-0.103160486
213	0xbdb21d32	-0.08696975
214	0x3fcfecae	1.6244104
215	0xbdbf0732	-0.09327544
216	0x3f226da7	0.63448566
217	0x3f492e37	0.78586143
218	0x3f5f8b31	0.87321764
219	0x3f5f93f5	0.8733514
220	0x3ce32dba	0.027731765
221	0x3f198367	0.5996613
222	0x3f8636f7	1.0485524
223	0xbd499242	-0.049211748
224	0x3f890e92	1.0707572
225	0xbcc21567	-0.023691846
226	0xbd11407d	-0.03546189
227	0x3dc04f94	0.09390178
228	0x3db3e5bb	0.08784052
229	0x3f26a02f	0.6508817
230	0x3f3a267d	0.7271498
231	0x3f5f0bc6	0.8712734
232	0x3f9ce29a	1.2256653
233	0xbda5c230	-0.08093679
234	0x3f844ee8	1.033658
235	0x3f434f80	0.7629318
236	0x3d845e82	0.064633384
237	0x3f520399	0.8203674
238	0x3db5f111	0.088838704
239	0xbde81fa4	-0.1133416
240	0x3f6fe32d	0.9370602
241	0x3f60a4c3	0.87751406
242	0x3f5629c4	0.8365748
243	0x3f86528c	1.0493941
244	0xbdd88408	-0.10572058
245	0x3d16aa2c	0.036783382
246	0xbec996cb	-0.39372858
247	0xbdc1da82	-0.09465505
248	0x3ad2bc6a	0.001607788
249	0x3f6fcc6e	0.9367131
250	0x3db722c6	0.089421794
251	0xc024fd40	-2.5779572
252	0xc0745c90	-3.8181496
253	0x3f55d0cc	0.83521724
254	0x3fa56f6d	1.292463
255	0x3cd4160d	0.02588942

fc.4.bias f4 [5]
0	0x3fc430a6	1.5327346
1	0xbefde071	-0.49585298
2	0x3f05e216	0.52298105
3	0x3faa1c02	1.3289797
4	0xbf41b727	-0.75670093
