models/dqn_tutor.pth (torch, 22765 bytes, 6 tensors)

fc.0.weight f4 [64, 6]
000000 00 da 62 3f 6b dd 35 bf 74 48 1d be 8c 5c d7 bb
       0.8861389 -0.7104098 -0.1535967 -0.0065723117
000010 6d 96 56 be a1 38 56 c0 6d e6 85 be e3 46 49 be
       -0.2095582 -3.3472064 -0.26152363 -0.19655947
000020 f9 03 1a be 82 69 ee 3d 9f 28 a1 be 16 c5 36 40
       -0.15040578 0.11641218 -0.31476304 2.8557792
000030 fe 26 14 bf 41 47 85 3d ba cf 15 40 d0 a9 fe 3c
       -0.57872 0.06507731 2.3408036 0.031086832
000040 15 54 05 c0 d3 6a 09 3f 57 a1 f5 3d 88 0b a3 bf
       -2.083257 0.53678626 0.11993664 -1.2737894
000050 e1 4c 0b be 01 df 30 bd d4 34 d9 bf 8b b6 0e 40
       -0.13603546 -0.043181423 -1.6969247 2.2298915
000060 7c 58 a5 3d a4 83 fd 3c 3b db c4 be 06 55 b4 bd
       0.08073518 0.03094656 -0.3844851 -0.088052794
000070 5e dd 6a be e9 f0 83 be e8 c6 55 3e 83 62 d6 be
       -0.22936007 -0.25769737 0.20876658 -0.41872033
000080 18 b6 22 3f 09 8e c4 bc 4b 27 e1 3e 4d 9e 31 40
       0.63559103 -0.023993509 0.4397529 2.775287
000090 58 c6 34 3d 35 28 e5 3e 12 60 23 3f 9a 72 f6 bd
       0.044134468 0.44757238 0.63818467 -0.12033577
0000a0 b3 3f 81 3e 0d 15 96 3f 5a bc 3d bc e3 5c 4a 3f
       0.2524391 1.1725174 -0.011580551 0.79047984
0000b0 ea 07 a7 3c bb fe 04 be 1e 34 cf 3f 28 34 3d 3f
       0.020389516 -0.12987797 1.618778 0.7390771
0000c0 57 06 b9 3e 2d 0e 4d 3f e2 a4 e4 be a1 ae 86 3d
       0.3613765 0.80099756 -0.44657046 0.065762766
0000d0 21 dc 13 3f e2 1c 37 c0 7f a9 43 be d0 5b 02 3c
       0.57757765 -2.8611379 -0.19107626 0.00795646
0000e0 5e 02 9e be c7 db 4a 3d 69 49 75 3f ea 91 00 40
       -0.3086118 0.049526002 0.9581514 2.008906
0000f0 68 62 64 bd 9d d4 0b 3f 61 74 86 3e 2f 45 97 bc
       -0.05575791 0.546213 0.26260665 -0.018465606
000100 da 1d be 3e 03 68 75 3e b2 f1 c8 bd 33 19 8d 3e
       0.3713215 0.23965459 -0.09811725 0.27558288
000110 71 b9 b1 bd af 71 cb bc 26 10 00 bd 0e e8 0f 40
       -0.08677948 -0.024834482 -0.0312654 2.2485385
000120 6b 1b 14 3e af 55 ae be b9 ea ac 3e 4b 2f 05 bf
       0.14463584 -0.34049746 0.3377283 -0.5202529
000130 55 77 fb 3e 98 10 51 be 72 a9 e6 3d bf fb 93 3f
       0.4911448 -0.20416486 0.11262788 1.1561202
000140 fb ee 36 3e 57 1e 4e be b6 fa 2b 3f e5 3a ad 3f
       0.17864601 -0.20128761 0.6717943 1.3533598
000150 a7 67 17 3e f7 f8 52 3d 8c b2 c0 3c 2c d6 bd bb
       0.14785634 0.051506963 0.023522638 -0.0057933535
000160 3c d7 e8 3e 99 a0 38 40 a1 ab 2d bf 2c ed 8b be
       0.4547671 2.884802 -0.6784001 -0.27329385
000170 72 87 d7 be 92 56 6a 3e 40 4e 4a be 67 a7 1d c0
       -0.42095524 0.22884586 -0.19756413 -2.4633424
000180 e8 b3 25 3f ea f8 1c c0 6d a1 02 bf 8e 79 42 be
       0.6472764 -2.4526925 -0.51027566 -0.18991682
000190 ac 89 39 c0 bd 11 86 bf 97 d2 3c 3e 53 d8 c7 be
       -2.8990278 -1.0474163 0.18439709 -0.3903223
0001a0 c7 3c 24 be 71 fc 95 be af 50 9a be 96 be 73 3e
       -0.1603881 -0.2929416 -0.30139682 0.23803172
0001b0 2c a9 bf bf a9 39 8e 3d 0c f4 99 3e 36 b9 32 3e
       -1.4973502 0.069445916 0.30069005 0.17453465
0001c0 70 ed 21 3f 46 4b 28 c0 b2 f4 8a be f4 a2 45 3e
       0.63252926 -2.6295943 -0.27139813 0.19300443
0001d0 79 fd 51 bd 98 41 84 be c7 b2 15 3d 4b 2c d3 bd
       -0.05126712 -0.25831294 0.03654745 -0.103111826
0001e0 78 bc f0 be da 19 5c bf a9 fa 98 be c7 48 26 3e
       -0.4701879 -0.85976946 -0.2987874 0.162387
0001f0 04 b5 cd be 70 9b 1b 40 11 c1 ad 3e 6e 5d 52 be
       -0.40177166 2.4313622 0.3393636 -0.20543453
000200 80 3c eb 3d 18 a6 c8 3d 96 5c be bd cc be 1f c0
       0.11486149 0.09797305 -0.09295003 -2.4960203
000210 f5 05 17 3f 8b 33 fd 3e f9 82 24 bd 8f 9f 0f bb
       0.58993465 0.49453387 -0.040163968 -0.0021915173
000220 d9 01 9f 3c e0 43 45 c0 15 9a 17 3f 0a 2b 5a be
       0.01941006 -3.0822678 0.59219486 -0.2130548
000230 79 85 96 3d d3 e2 09 bf 07 09 9d 3e b5 33 0d 3f
       0.07349677 -0.5386173 0.3067095 0.55157024
000240 2b 65 c0 be 32 80 93 3f 36 ba a0 3e 1c 88 1e 3c
       -0.37577185 1.1523497 0.31392068 0.009676006
000250 6a 9e e4 3f 7e 35 d5 3f 9a 5c a3 3e ab 48 58 be
       1.7860844 1.665695 0.31906587 -0.2112147
000260 16 59 ca bd 6b aa 36 3e 79 23 20 c0 37 66 d2 bf
       -0.09880273 0.17838447 -2.502165 -1.6437443
000270 fe e5 69 be 6b f5 05 bd d2 d4 fd 3d ce e9 e5 3b
       -0.22841641 -0.032704752 0.12394108 0.007016397
000280 80 33 73 3f e9 4b e5 3f c9 45 e5 3e c0 6a 98 bf
       0.9500046 1.7913791 0.44779804 -1.1907578
000290 29 b6 02 be 67 03 1e bf e7 b3 56 3e af ae 38 3e
       -0.12764801 -0.6172394 0.20967065 0.18035387
0002a0 72 d7 2b be d7 6d af be 70 f5 c7 be 5e c1 b1 be
       -0.16781405 -0.3426349 -0.3905444 -0.3471784
0002b0 61 7f 90 bc f7 28 92 3e 35 2c a3 3e eb fe 6b be
       -0.017638864 0.2854688 0.31869665 -0.23046462
0002c0 d5 24 c0 be 41 30 fb be 6b c4 bf bd 85 be bb be
       -0.375281 -0.49060252 -0.09363636 -0.36668792
0002d0 0c 5a f0 bf 88 49 84 3f 43 45 04 3e 4e 2b 6a be
       -1.877748 1.033494 0.12917046 -0.22868082
0002e0 94 79 32 be 5b 2e d5 3f ea 75 f6 3e 8e 68 ae 3f
       -0.17429191 1.6654772 0.48136836 1.3625658
0002f0 ae 45 ab bd de 50 b2 bc 54 9f ae 3f d6 46 3e c0
       -0.083629 -0.021767076 1.3642373 -2.9730735
000300 33 d3 ac 3e b9 d5 1a 39 62 3d 0f 3e 5e 11 ba bc
       0.33754882 0.00014766202 0.1398826 -0.02271336
000310 04 0f 08 3e 2f 5a 29 40 48 d6 b9 3d 90 07 2b be
       0.13286978 2.6461294 0.09074074 -0.16702104
000320 a4 88 7b 3e 7c bb c9 3b 3a e6 ae 3e f7 c9 1f 40
       0.24563843 0.006156383 0.34160024 2.496702
000330 88 85 b2 3c e2 99 f1 be a2 56 1e 3e 13 af 73 be
       0.021792188 -0.47187716 0.15462735 -0.23797254
000340 5d 69 18 be a2 33 c5 be a4 d6 9c 3d 2a a1 38 40
       -0.14883943 -0.38515955 0.07658127 2.8848367
000350 90 12 b2 be 2e 30 f5 be 03 5c 3a 3f b6 b0 38 3f
       -0.34779787 -0.4788832 0.7279665 0.7214464
000360 ce 64 7e bd d9 a7 b7 be 11 1a 28 be 13 93 29 be
       -0.062107854 -0.35870245 -0.16416194 -0.1656001
000370 b4 cf c1 3e 48 db 0b 3d 51 a4 9f 3e ba ab 8f bf
       0.37853777 0.03414467 0.3118005 -1.1224282
000380 91 ac a4 bc fa f9 25 3e a5 71 cf be 90 2b 1a c0
       -0.020101817 0.1620864 -0.4051639 -2.4089088
000390 a8 89 27 3f 08 29 de bd b7 b1 29 be 2b b8 ff ba
       0.6544442 -0.1084767 -0.16571699 -0.0019509842
0003a0 9a 0a 4c be b4 b0 28 c0 6f d1 84 be 92 2d cc be
       -0.19925919 -2.635785 -0.25941035 -0.39878517
0003b0 11 71 62 3d 3b 64 aa bd 47 e0 1c 3e 68 91 c3 3d
       0.05528361 -0.08319899 0.1531993 0.095492184
0003c0 8a b8 85 3d d5 97 5c bf 61 15 7a be 1b e2 f0 3a
       0.06529339 -0.8616918 -0.24422218 0.0018377932
0003d0 32 9e 15 bf 9c 29 0e 40 65 23 00 3f cb 6c 9d 3f
       -0.5844451 2.2212896 0.5005401 1.2298826
0003e0 df cf 90 3e f8 f3 62 bf 6d fc df be a5 50 3a 3f
       0.28283593 -0.88653517 -0.43747273 0.72779304
0003f0 78 11 a2 bc e9 38 19 3f 1a 7d 76 3e 6b 27 bb bd
       -0.01978372 0.59852463 0.2407116 -0.09138378

fc.0.bias f4 [64]
000000 d1 aa 64 bf 51 e2 c7 3f 4b 98 f7 bd 74 26 bf 3f
       -0.89323145 1.5615941 -0.120895945 1.493361
000010 4e c5 b5 be 7d ea f1 3f 2f cf d0 3f cd 6f b6 3f
       -0.35502094 1.8899685 1.6313227 1.4252869
000020 a4 91 38 bf a2 3b c2 3f 00 96 0c 40 87 89 4d 3f
       -0.7209723 1.5174448 2.1966553 0.80287975
000030 4d 43 be 3e 74 7b d4 3f 28 02 c4 3f 7c 60 fa be
       0.3716072 1.6600175 1.5313158 -0.48901737
000040 51 ab fd 3d 62 61 9d be 45 54 b7 3e 79 84 c1 bd
       0.12386192 -0.3073836 0.3580648 -0.09449095
000050 93 48 dd 3f cb 93 93 bf e4 14 ab bf ce 9e e9 3c
       1.7287773 -1.1529478 -1.336575 0.028518107
000060 13 20 ad 3f e3 b9 e7 bf 19 fe 96 3f a6 bd 9b bd
       1.3525413 -1.8103603 1.1796294 -0.07604532
000070 7f cb 78 be 22 f6 94 be 1e 59 6c 3f d7 4b 28 bf
       -0.24296378 -0.29094034 0.9232348 -0.6574072
000080 08 0f 07 40 d0 3a b4 3f d0 dd 3e 3d 51 5c ed be
       2.1102924 1.4080448 0.046598256 -0.46359494
000090 7c d7 3c 3e 95 48 2c bf 6a 4a bc bf 3a 0e 50 be
       0.18441576 -0.6729825 -1.4710209 -0.20317927
0000a0 af b8 dd 3f 1d 36 b6 3f 34 7e d2 3f 91 38 0c 40
       1.7321986 1.4235264 1.6444764 2.1909525
0000b0 b6 d7 c9 3f 38 a7 a6 be ee 42 c6 3f 6a 62 57 be
       1.5768955 -0.32549453 1.5489175 -0.21033636
0000c0 1b 95 b0 be b1 c2 ef 3f a7 13 e3 3f c6 b6 37 bf
       -0.34488758 1.873129 1.7740372 -0.71763265
0000d0 6e ed 21 3f db 40 0f 40 4f e0 d9 3f 37 53 bb bf
       0.63252914 2.2383335 1.7021579 -1.463477
0000e0 3f ca bd bf e8 f7 4b 3f d8 9b b8 be af f4 6a be
       -1.4827346 0.7967515 -0.360564 -0.22944902
0000f0 72 61 91 bf bf 04 52 3e d4 c9 bf 3f 61 6e 0c 40
       -1.1357863 0.20509623 1.4983468 2.194237

fc.2.weight f4 [64, 64]
000000 fb 9e d6 bd 21 5d 1d be a0 4c fb bd 94 8d 93 bd
       -0.10479542 -0.15367557 -0.122704744 -0.07204738
000010 20 9a db 3d 8a 5a 4d 3d 5c 12 30 3c c1 c8 04 bc
       0.107227564 0.050135173 0.010746565 -0.008104504
000020 d3 dc 03 bd 97 5b b5 3d bc 9d 3e 3c e8 48 9d bd
       -0.032193016 0.0885536 0.0116342865 -0.076799214
000030 0e 03 be bd 30 bc c6 bd 3c 12 db bd f4 c6 a7 bd
       -0.092779264 -0.09703863 -0.10696837 -0.08192244
000040 f0 12 d8 bd e8 02 4d 3d b6 e8 10 bd d6 49 80 3d
       -0.10550487 0.0500516 -0.03537818 0.06264083
000050 8c 7a 2a bd c4 98 e6 3c 77 b9 46 bd 2c 9a 68 3d
       -0.041620776 0.028149016 -0.048516717 0.056787655
000060 3e 58 b3 bd 20 f2 65 bd 90 96 eb 3b 22 93 d8 bd
       -0.08757065 -0.05613911 0.0071895793 -0.10574938
000070 1e ec b0 3d 48 c0 fb 3d 44 95 85 bd 44 1d 62 bc
       0.08638786 0.12292534 -0.06522611 -0.013800923
000080 1d 08 c6 bd 17 db 2c bc 24 97 ac 3d 06 c6 fb bd
       -0.09669516 -0.010550282 0.08427265 -0.12293629
000090 90 06 d2 3d 10 ba 6d bd f2 67 f9 3c 62 4b b8 3d
       0.10255158 -0.05803877 0.030445073 0.08998753
0000a0 0c 92 3e bd d0 40 13 3d 1e b3 bb 3d 08 fc 9e bc
       -0.046526 0.035950482 0.09165023 -0.019407287
0000b0 a2 14 74 bd d0 ba 67 3d 3c 54 0c be 3c e6 b8 bd
       -0.05958999 0.056574643 -0.13704008 -0.09028289
0000c0 e0 a7 da 3c c4 96 d2 3c 17 c3 a2 bc 10 9c ee bd
       0.026691377 0.025706656 -0.019868417 -0.1165086
0000d0 f8 ec a7 bd 8c 3c 2b 3d 39 a6 d8 3c 1a 3c e3 bd
       -0.08199495 0.04180579 0.026446449 -0.11095448
0000e0 71 1d ca 3c 82 83 a2 bd d0 82 97 bd a8 24 da 3c
       0.024672242 -0.079352394 -0.073979974 0.026628807
0000f0 2c b7 ff bd d8 77 ee 3d 66 d5 bc bd 11 59 c1 bd
       -0.12486109 0.11643952 -0.0922039 -0.09440816
000100 38 a5 98 3c 0f c8 56 bd 40 9f d0 bb c8 52 43 bd
       0.01863347 -0.052436884 -0.0063666403 -0.04768637
000110 c8 41 b2 3d 71 21 bb bd 80 a4 db 3b 84 f3 39 3d
       0.08703953 -0.09137238 0.0067029595 0.04539825
000120 a6 80 f1 bd c7 06 7a 3c 66 5d 25 3c e0 a3 e6 3c
       -0.11792116 0.015260405 0.010093069 0.028154314
000130 f4 bc 39 bd ec 2e 0c be 89 7f 16 3d fa 23 ed 3d
       -0.045346215 -0.13689774 0.03674272 0.115791276
000140 53 8a 90 3d dc f5 d2 bd ce 2c 96 bd 48 9d 87 3c
       0.07057633 -0.103008 -0.073327646 0.01655449
000150 46 3f 22 be a2 be e5 bd 60 82 af bb e8 3b e3 3c
       -0.1584445 -0.11218001 -0.005356118 0.027738526
000160 55 9a 1c 3d 78 dc 39 bd 65 4a 1f bd ac 8a 16 bd
       0.03823312 -0.04537627 -0.038889308 -0.03675334
000170 c0 6e 1a bc 30 e9 0a bd 2b 84 1f be 21 dc 9e 3d
       -0.009425819 -0.03391379 -0.15577762 0.0775683
000180 54 cd 76 3d a2 8f a2 bd 18 ea e1 3c 86 67 ba 3d
       0.06025441 -0.07937552 0.027577445 0.09101777
000190 78 c7 42 bd 4e 0c a9 bd 18 a2 55 bd 0a 63 9e bd
       -0.04755351 -0.082543 -0.052156538 -0.07733734
0001a0 ae 86 75 3d 20 3c 7a bc 7e d1 9b ba 3c bb 51 bd
       0.059942894 -0.015273124 -0.0011887995 -0.05120395
0001b0 a2 10 10 be 84 46 a9 bd 1c af 4c bc d4 9c c7 3d
       -0.14068845 -0.08265403 -0.012492921 0.097467095
0001c0 00 25 12 ba bb 9d 0a be 12 34 c2 bd 62 68 d7 bd
       -0.00055749714 -0.13536732 -0.09482588 -0.10517956
0001d0 26 27 87 ba 0e 10 f2 3d 33 49 ba bc e4 0f f0 3d
       -0.001031135 0.118194684 -0.022739982 0.11721781
0001e0 30 8e 37 3c db 47 8f 3d 78 cf 26 3d 36 22 ec 3d
       0.011203334 0.06996127 0.0407252 0.11529963
0001f0 b5 3c 71 bd 94 14 31 3d ff e3 8c bd ec 14 68 3d
       -0.058895785 0.043232515 -0.06879424 0.056660578
000200 84 82 3a bf 4f 23 d2 3d 1c 18 ac be 71 0a 18 3e
       -0.728554 0.10260641 -0.33612144 0.14847733
000210 50 9f 07 3d b2 54 c6 3e 69 c6 00 3f fd 57 7c 3e
       0.033110917 0.38736492 0.5030275 0.2464294
000220 75 61 77 bf 5e 0c 7d 3c 07 b2 e0 be 4d 33 78 3e
       -0.9663308 0.015444843 -0.43885824 0.2423832
000230 b2 3b 56 be 9f e1 1c 40 ad 8b fd 3e 7b 50 60 bf
       -0.2092121 2.4512708 0.49520627 -0.87622803
000240 83 6f 81 c0 80 9b 11 3c d4 32 96 bc 40 8f fd bd
       -4.0448623 0.008887172 -0.018334784 -0.123808384
000250 2f 21 fb bc ae 3e 55 bf a3 f4 e8 bf 7c bd d5 be
       -0.030655472 -0.83298767 -1.8199657 -0.41746128
000260 c0 fc 63 3e 6a 28 d0 be 00 30 14 3f 90 8a fc 3e
       0.22264385 -0.40655833 0.5788574 0.49324465
000270 ac 5e 19 bd 22 da 3c bd b4 24 1e bb 6f a1 83 bf
       -0.0374438 -0.046106465 -0.0024130763 -1.0283641
000280 b6 9e d7 3e b6 44 28 3e b9 24 9a 3d e6 94 e6 be
       0.42113274 0.16432461 0.075265355 -0.45035475
000290 b2 99 c7 be db f7 26 3f 37 bd ab bf 78 bf 3e 3d
       -0.38984448 0.6522195 -1.3417119 0.046569318
0002a0 5d b6 b0 3e 53 67 ea bf 1b be a6 3e e1 3e a3 3f
       0.34514132 -1.8312782 0.32566914 1.2753564
0002b0 4f 16 7d 3e 32 c1 1d bf 73 5d d1 3e f3 f4 20 bf
       0.24715541 -0.6162292 0.4089161 -0.6287376
0002c0 d7 2f 42 3f 06 a6 eb 3c 4b 1b 4b 3e 20 43 c0 bf
       0.7585425 0.02876569 0.1983463 -1.5020485
0002d0 12 98 e7 bf 61 7a 63 be ad 22 69 3e 82 7a 47 bf
       -1.8093283 -0.22214653 0.22767134 -0.7792131
0002e0 c3 f4 a3 be 78 44 8d 3f a8 48 e2 3c 3b 69 80 bf
       -0.32022676 1.103652 0.027622536 -1.0032114
0002f0 27 f4 8f 3f ac 70 d4 3d 5b 50 0e 3f e1 5d 2e 3f
       1.1246384 0.10373053 0.5559136 0.68112
000300 bb db ce 3f 7e e7 e6 be cd a1 f2 bf c9 45 6a 3f
       1.6160806 -0.4509849 -1.8955628 0.91512734
000310 80 1c 44 3d ff 97 8c be 90 ab 0f 3f 70 a7 ba be
       0.047878742 -0.27459714 0.5612116 -0.3645587
000320 2b 78 83 3f 95 f7 ac 3d 41 8b f2 3d 70 33 8c be
       1.0271047 0.0844566 0.11842967 -0.27382994
000330 e3 bc e1 be b5 03 a6 3e 92 ff b0 be b4 ed a8 be
       -0.44089422 0.32424703 -0.34569985 -0.32993853
000340 ec ba 0c 3f 82 8c bb 3d 2f 8e c8 bd 62 60 b1 3d
       0.5497272 0.09157659 -0.09792744 0.08660962
000350 7c 54 64 bf 44 f2 71 3f d3 ea 53 3f f0 02 31 3f
       -0.8919141 0.94510293 0.8278019 0.6914511
000360 85 ac 49 bf b7 fe 5c 3f 15 a9 f0 be 6c 52 3b bf
       -0.7877887 0.86326164 -0.47004 -0.7317264
000370 24 c9 7e 3d 77 86 d6 3d 71 ae b6 3d 25 67 ed 3e
       0.06220354 0.10474866 0.08919991 0.46367756
000380 7a f2 94 be 31 a8 cc bd 40 cb 14 bb d3 2b 75 be
       -0.29091245 -0.099930175 -0.0022704154 -0.23942499
000390 b0 d7 7a bc c2 48 39 3f fc 2e 18 3f c8 e2 eb bd
       -0.015310213 0.72376645 0.5944669 -0.115178645
0003a0 6b 5b 3d be 95 2e 57 bb 2b 5a bd be 5c a4 21 be
       -0.18491904 -0.0032834162 -0.36982855 -0.15785354
0003b0 12 84 5d bf 06 25 84 bf 5f 10 11 bd 72 58 80 3e
       -0.8652965 -1.0323799 -0.035416003 0.25067478
0003c0 44 0e 88 bd 50 bd 50 bf 8c fd ca be 8e 6a 76 3f
       -0.06643346 -0.8153887 -0.39646566 0.9625634
0003d0 47 0e 54 3f 5b 0c ea bf 0e e5 2c bf 18 7a 8f 3f
       0.82834285 -1.828502 -0.6753701 1.1209135
0003e0 ec 83 80 3f 6a 11 81 be 70 38 6b bc 7b 09 fc bd
       1.0040259 -0.25208598 -0.0143567175 -0.12306496
0003f0 2e ba 86 bf 68 cc d5 3c d4 82 88 be 4f e8 91 3f
       -1.0525568 0.026098445 -0.26662314 1.139902

fc.2.bias f4 [64]
000000 89 34 06 be c4 45 3b 3d a8 16 58 3d 15 f3 56 bd
       -0.13105978 0.04572083 0.05275598 -0.052477915
000010 aa 36 81 3f e3 2b 9c 3f 5e 07 f6 bd 4c 70 10 3f
       1.0094807 1.2200893 -0.12013124 0.5642135
000020 7d 09 6d bd c1 47 ea bc a9 87 d0 bd f1 e6 c1 3c
       -0.057870377 -0.028598668 -0.10182125 0.023669692
000030 de 82 d3 3f 2e 33 ca 3f 5a dc e9 3f 1b 55 28 bd
       1.6524312 1.5796869 1.8270371 -0.041096788
000040 ff 9d de 3f 86 10 26 bd 91 6d c6 3d c2 35 45 bd
       1.7391967 -0.0405431 0.09688867 -0.04814697
000050 5a ed ec 3f 4d 5b 63 3f 8d e2 d5 3f fd 05 e7 3f
       1.8509934 0.8881119 1.6709763 1.8048702
000060 4b 3b 68 bd 78 dc 4f bd c0 db c0 3f e3 c6 83 3f
       -0.05669717 -0.050747365 1.5067062 1.029507
000070 e6 cb 61 bc a8 43 d6 3f 06 90 cb 3f 9d 71 8f 3d
       -0.013781523 1.6739397 1.5903327 0.07004092
000080 f2 12 a4 bd a4 9f 25 be bd 09 ee 3f 35 4c b2 3f
       -0.08011426 -0.1617418 1.8596722 1.3929507
000090 21 17 77 3f 4a 4c 16 be 04 13 04 40 bd 8c 37 bd
       0.96519667 -0.1467754 2.0636606 -0.044811953
0000a0 85 6e d3 3f 64 96 bd 3f 09 78 fa 3f 34 6d a4 3f
       1.6518103 1.481152 1.9567882 1.2845826
0000b0 8e 35 80 3c 51 5f 89 be 3b eb 58 3d b7 42 ca 3f
       0.015650537 -0.26830533 0.05295871 1.580161
0000c0 b4 f8 1c 3d 5b 6d c3 3e 49 98 03 be 3d ea ec 3f
       0.03832312 0.3816937 -0.12851061 1.8508984
0000d0 a8 9d 91 3f 68 8f 05 bf 0a 61 03 3d e5 c6 da bb
       1.1376238 -0.52171946 0.032074966 -0.006676542
0000e0 54 44 4c be 67 a3 f1 3c ab 70 8c 3d e6 71 cf bd
       -0.1994794 0.029496862 0.06857427 -0.10129146
0000f0 e0 8d 43 bd 44 47 c6 bd ac 1c ce 3f 9d 61 11 bd
       -0.047742724 -0.096815616 1.61025 -0.035493482

fc.4.weight f4 [5, 64]
000000 e2 35 e8 3d 54 db b7 bd b3 02 bb bf 75 a8 de be
       0.11338402 -0.089773804 -1.4610199 -0.43487898
000010 33 56 4b 3f d4 27 57 c0 bf 3d 62 bd 88 c2 26 3f
       0.79428405 -3.361806 -0.055234667 0.6514058
000020 e8 75 f8 bc f2 eb 8e bf 59 0b e0 bb 53 ae 3f bc
       -0.03032966 -1.1165755 -0.0068372902 -0.011699277
000030 c3 d4 51 3f e0 2c 6c 3f 59 29 60 3f 2b 83 82 bd
       0.81965274 0.92255974 0.8756309 -0.063726746
000040 4b 5a 40 3f af e6 a3 3d 7c c0 99 bd 97 7e c4 bd
       0.75137776 0.08002984 -0.075074166 -0.095944576
000050 eb 21 87 3f 41 af 55 3f 6e 53 44 3f 87 6a ba 3f
       1.0557226 0.8347054 0.76689804 1.456376
000060 72 61 22 bd 3e d7 7e 3c 3b c3 51 3f 9b 03 a4 3e
       -0.039643712 0.015554247 0.81938523 0.32034
000070 67 60 bf bd 17 9e 5b 3f 10 d2 3f 3f d5 92 94 bc
       -0.09344559 0.857881 0.74929905 -0.018136421
000080 d8 d7 ea bb c1 a0 9c bc 33 33 78 3f 65 39 49 3f
       -0.007166844 -0.019119622 0.96953124 0.786032
000090 01 fb 4c 3f f8 03 4c 3d f5 ae 7b 3f 27 f7 15 be
       0.800705 0.049808472 0.9831384 -0.14645062
0000a0 6c 88 68 3f 3f 7c 72 3f 0b 8a 9e 3f b8 61 87 c0
       0.90833163 0.94720834 1.2385877 -4.2306786
0000b0 78 7a 20 3e 04 7a e4 3f 14 2e cd bc bb 30 50 3f
       0.15671718 1.7849736 -0.025046386 0.81324357
0000c0 2e 71 cf 3d 81 de 9a bf e0 82 e0 3c 97 81 58 3f
       0.10129009 -1.2099153 0.027406156 0.8457274
0000d0 24 86 ac bf 08 10 3a bf d4 63 0a bd af b7 10 c0
       -1.3478436 -0.7268071 -0.03378661 -2.2612112
0000e0 15 1b 9c 3d 92 95 a3 bd 14 74 8f bd 86 ef ad bd
       0.07622353 -0.07987513 -0.07004562 -0.08492951
0000f0 18 62 8b bc 90 1a 3a 3c 01 33 3b 3f f2 46 a4 3c
       -0.017014548 0.011358872 0.731247 0.02005336
000100 3e cd ad bd 40 d0 cc 3d 59 3f 12 bf d6 c5 03 3f
       -0.084864125 0.10000658 -0.5712791 0.5147375
000110 e8 b2 ad 3e 42 e5 0e c0 75 5b 7b bd a4 71 21 40
       0.33925557 -2.2327428 -0.061366517 2.522561
000120 1c c8 45 3d b1 df 47 bf 04 a4 6a bc a0 b9 8c 3d
       0.048286542 -0.780757 -0.014321331 0.06871343
000130 a1 cc 35 3f f2 5b 80 3f 10 61 81 3f e0 b2 81 bd
       0.71015364 1.002806 1.0107746 -0.06332946
000140 c5 88 35 3f 5e 12 2b 3d 64 26 c6 3d 1c fc c1 bd
       0.7091182 0.041765563 0.09675291 -0.09471914
000150 cc 4b 53 3f 81 ec 79 3e d5 8a 25 3f c5 36 b9 3f
       0.8253753 0.24406625 0.64664966 1.4469839
000160 74 1b 6a bd 16 d4 d0 3d 52 76 0e 3f 43 3f a0 3f
       -0.057155088 0.10196702 0.5564929 1.2519306
000170 e2 7b ad bd f0 ce 76 3f 67 b1 89 3f a1 89 eb 3d
       -0.084708944 0.9640951 1.0757264 0.1150086
000180 0c 1f 7f bd e2 a3 a7 bd d9 56 7f 3f 8d 2b da 3f
       -0.062285468 -0.08185555 0.99741894 1.7044541
000190 5e 02 8c 3f 60 8f d5 3c 29 01 72 3f 9a b2 62 bd
       1.0938222 0.026069343 0.9453302 -0.05534611
0001a0 1c 23 7a 3f ed 9a 65 3f 43 3d 7a 3f fe 00 3d c0
       0.9770982 0.89689523 0.9774973 -2.9531856
0001b0 cf 13 8c 3c 55 b7 c7 3f 5c 8c 84 3d 82 bd f7 3e
       0.01709929 1.5602823 0.06472084 0.4838677
0001c0 5e e4 e5 3d 77 85 34 c0 ab 6d d6 bc e4 6f 37 3f
       0.11225198 -2.820646 -0.02617534 0.71655107
0001d0 bc 74 bb bf b6 6f 84 3f fa 89 d3 3d a9 29 64 3f
       -1.4645 1.0346591 0.10329051 0.8912607
0001e0 4e ca 11 bd 70 50 dc 3c c0 25 9d bb a0 0a da 3d
       -0.035593323 0.026893824 -0.00479576 0.10646558
0001f0 63 57 33 3c d8 94 10 3d 48 f6 14 3f a5 fe 2b bd
       0.010946128 0.0352982 0.58188295 -0.041990895
000200 2d d8 38 3c ee 5a ae bd 3b 81 22 3f 4c cf 19 3f
       0.011282009 -0.08513437 0.6347844 0.60081935
000210 b6 15 74 40 d2 05 fa 3f 3c 7a 8c 3d ef d2 53 40
       3.8138251 1.9533026 0.06859252 3.3097494
000220 18 ac 92 bd 1f 26 ee bf be 54 de 3d be a9 da ba
       -0.071617305 -1.8605384 0.10856007 -0.0016682667
000230 6d f0 be 3e 03 35 25 3f 2f 56 7c 3f 4c 0a 73 3d
       0.37292805 0.64534014 0.98569006 0.05933599
000240 47 55 85 3f 8f 04 a8 3d 68 16 eb 3c ad 85 7d bc
       1.041665 0.082039945 0.028697208 -0.015473765
000250 49 47 4e 3f 75 53 89 3c 3b f6 1c 3f 3b f4 a1 bd
       0.8057752 0.016763428 0.6131322 -0.079079114
000260 94 d1 03 3d 56 a0 95 bd ff f8 9b 3e c0 6c ed bd
       0.03218229 -0.07305972 0.30463406 -0.11593008
000270 d8 1e 83 bd c5 0d 80 3f ca b6 24 3f f6 0f 8e 3d
       -0.06402367 1.0004202 0.64341414 0.06936638
000280 a4 c2 a8 bd 12 48 bb bb e9 db 52 3f c1 3c 7a bf
       -0.0824025 -0.0057153786 0.82366806 -0.97748953
000290 44 36 42 40 3c db 8c 3d fe 4a 8f 3f df a3 10 be
       3.034562 0.06877753 1.1194761 -0.14125012
0002a0 b8 d8 35 3f ca f8 48 3f c7 e0 65 3f f3 40 b9 bf
       0.7103381 0.7850462 0.8979611 -1.4472946
0002b0 3e 9b 85 bd 4a d0 1b bf a7 f1 29 bd ec a6 f9 3e
       -0.06523751 -0.608647 -0.041490223 0.48760164
0002c0 83 b6 b6 bd 86 f7 35 bf d2 cd d3 3c 1a 32 41 3f
       -0.0892153 -0.71080816 0.025854979 0.75467074
0002d0 e2 44 dc be 41 d6 dd 3f 08 e7 86 3d 0b 55 08 bf
       -0.43021303 1.733101 0.065870345 -0.53254765
0002e0 79 98 1f bd 53 bb 80 3c 7c 42 9f 3d e0 57 a0 3b
       -0.03896377 0.015714323 0.07776353 0.004893288
0002f0 10 53 a1 3d 33 6a 26 3c 84 e2 d0 3e 26 96 8e bd
       0.07877171 0.010157156 0.40797818 -0.06962232
000300 8c 15 b8 3d a9 fe 05 bd a9 6a 54 bf 6d 78 29 40
       0.08988485 -0.032713566 -0.8297525 2.6479752
000310 5e f4 87 3f 39 58 33 c0 fe 55 c2 3d 1a c4 ec 3e
       1.062145 -2.8022597 0.09489058 0.46243364
000320 7f 0c 98 3b c0 03 e5 bf 20 67 9c 3c b9 77 88 bd
       0.0046401615 -1.789177 0.019092143 -0.0666346
000330 b7 62 4e 3f e7 25 59 3f a2 f9 95 3f 34 d1 55 bd
       0.80619377 0.8482346 1.1716807 -0.052201465
000340 db 0f 87 3f 0b 3f a1 bd b6 ce 1a bd 4c ae 8b bd
       1.0551714 -0.078733526 -0.03779479 -0.06820354
000350 20 00 48 3f 9c cd ef 3e eb 2e 2f 3f ca 1f a5 3f
       0.7812519 0.46836555 0.68430966 1.2900326
000360 28 4b 80 3c 6c 38 8a bd e5 d5 1d 3f a6 a4 e3 3e
       0.015660837 -0.06749043 0.616545 0.44461554
000370 91 e5 16 bb 03 43 62 3f 75 b5 8a 3f 63 32 84 bc
       -0.0023025016 0.883835 1.0836626 -0.016137308
000380 44 7a 33 bc c5 66 a1 3d 91 c6 83 3f 63 9b b8 3f
       -0.010954443 0.0788093 1.0294973 1.442242
000390 00 eb 86 3f 64 ba 1a bd a3 44 80 3f 70 6a 63 bc
       1.0540466 -0.037775412 1.0020946 -0.013880357
0003a0 ea 7a 40 3f 73 02 4b 3f b6 a0 90 3f c0 9c 44 c0
       0.7518755 0.7930061 1.1299045 -3.0720673
0003b0 58 f9 26 3d 8a 1c 05 40 8d de 9d bd eb 05 0a 3f
       0.040765136 2.079867 -0.07708464 0.5391528
0003c0 38 c3 44 bd 51 f7 e0 bf 38 f6 94 bd ff 23 34 3f
       -0.048037738 -1.7575475 -0.07273525 0.70367426
0003d0 6d 0b 04 c0 3c 48 f7 3f 70 07 d4 3c 33 53 b3 3f
       -2.0631974 1.9318919 0.025882453 1.4009765
0003e0 2c ef 3f bf 4e a4 c7 3d 2b 89 95 bd 60 b8 b3 bc
       -0.7497432 0.097481355 -0.07301553 -0.021938503
0003f0 de 75 35 bd 96 20 f3 3d f7 63 09 3f 24 67 74 3c
       -0.04430186 0.1187145 0.5366816 0.014917169

fc.4.bias f4 [5]
000000 27 50 87 3f 1d bb c4 3f c6 62 3b 3f 87 84 06 40
       1.0571336 1.5369602 0.7319759 2.1018388
000010 7f f3 c2 be
       -0.38076398
